DeployToProduction/WineQuality/NN/DLnet_WineData.onnx (onnx, 1998 bytes, 5 tensors)

Linear1.weight f4 [10, 11]
000000 ef 9b 82 bc 4a 2f cc bd fa 35 58 3d f9 74 fb 3d
       -0.015943496 -0.09969957 0.05278585 0.1227817
000010 3a fb cd 3a 58 41 1e 3f e7 d8 24 3d cd 04 11 bf
       0.001571513 0.61818457 0.040245917 -0.5664795
000020 1c 8c 6c 3e 5e 21 01 bb 56 8e c7 be 7a fb 93 bc
       0.23100322 -0.0019703726 -0.3897578 -0.01806425
000030 a9 41 86 be 09 c1 d6 be 51 3e 13 3f 27 b3 21 3f
       -0.2622197 -0.4194415 0.5751696 0.6316399
000040 df 25 8a 3e de a6 09 3d 97 a2 d2 be 0a 69 4a 3e
       0.26982018 0.033606403 -0.4113967 0.19766632
000050 6c a1 88 bc 89 ab 93 3e 1a bc 90 bd 9e ae ce bd
       -0.016678534 0.28841808 -0.070671275 -0.10091899
000060 d3 3e 1e be 48 8b ba bd 49 ea 6e be 26 db 63 3e
       -0.15453653 -0.09108597 -0.2333156 0.22251567
000070 a7 e2 1b 3f 18 59 3e be 7d 9e 71 be 7d 39 23 be
       0.6089272 -0.18588674 -0.23595615 -0.15939899
000080 bd ba fb 3e d4 29 25 3e 98 b7 7a bf 5c 54 0c bf
       0.49165908 0.16129237 -0.9793639 -0.5481622
000090 e9 be eb be f9 08 a1 3e 86 73 ff 3c 69 92 e5 bc
       -0.4604409 0.31452158 0.031183016 -0.028023915
0000a0 fb a6 e8 3e e9 c5 86 be 2a f6 a2 3e 84 c8 08 bf
       0.45439896 -0.26322868 0.31828433 -0.5343096
0000b0 87 be 01 3e f8 e8 bb bc a7 21 d4 3e 0a 8a 7c 3c
       0.12670337 -0.022938237 0.41431925 0.01541377
0000c0 24 42 57 3e 80 51 3b be 4a 2c 9b 3e 76 11 b1 bd
       0.21021324 -0.18292809 0.30307227 -0.086459085
0000d0 ee 7e df bc bb 48 c7 be 53 75 4a bc 14 0b a6 3e
       -0.027282204 -0.38922676 -0.012357074 0.32430327
0000e0 97 2d db ba 23 ed 4d be d2 dd ac bd 7f 3b c8 bd
       -0.0016721961 -0.20109992 -0.08440746 -0.09776973
0000f0 8a 3a 27 3e 99 ff 84 be 0d c4 f6 bd 8c 89 6e 3e
       0.16330925 -0.25976256 -0.120491125 0.23294657
000100 04 1e 10 3f 1a 31 b3 be 4f 6e 6a 3d c6 0e 2e bd
       0.562958 -0.349984 0.057234105 -0.042494558
000110 09 93 45 3d a4 f5 55 3e 43 56 20 bf f9 8d ac 3e
       0.048235927 0.20894486 -0.62631625 0.33702067
000120 9e 87 15 bf 49 c6 d0 bd 2d 2e 56 3e a1 d2 77 3e
       -0.5841006 -0.1019407 0.20916052 0.24201442
000130 ea ac d9 3e 38 ca a6 bd 80 a7 2e be 2d 0e 07 be
       0.42514735 -0.08144039 -0.17056084 -0.13189001
000140 e0 95 3d 3f a5 01 33 be e7 14 2a bd dc 24 b4 3d
       0.74056816 -0.17481096 -0.04152384 0.08796093
000150 fb 10 fa 3b 96 15 6b be f7 72 16 3e 1a 82 87 bd
       0.0076314188 -0.22957453 0.14692293 -0.06616612
000160 81 83 ff 3d 17 09 17 bc 43 bd c1 3e 8d a8 77 3d
       0.12476254 -0.009218476 0.37839708 0.060463477
000170 68 47 13 3e 38 c9 2a 3f a3 66 2b 3f 35 7a bf be
       0.14382708 0.66713285 0.66953486 -0.37397924
000180 cb 1e e9 bd fa 13 64 be 35 1e d6 bd 53 e9 91 bd
       -0.113828264 -0.22273245 -0.1045498 -0.07124581
000190 16 5d ec 3e 80 1a 45 3e f7 d6 f9 bc 19 d3 d8 be
       0.4616477 0.1924839 -0.030498011 -0.42348555
0001a0 8a b2 b0 3d 8b 24 d9 bd 54 dd ec be 9e 08 09 3e
       0.086278036 -0.10602673 -0.4626261 0.13382193
0001b0 63 d2 7a 3d f5 e9 cf 3e
       0.061235797 0.40608183

Linear1.bias f4 [10]
000000 17 98 b4 3f 83 6f 81 3f 2f 93 84 3f 46 d7 c7 3c
       1.4108914 1.0112156 1.0357417 0.024394643
000010 30 04 c1 3f 2f 57 6e 3f bb ec 09 3f 07 2c ad 3f
       1.5079403 0.9310178 0.5387685 1.3529061
000020 0c 22 21 3f 70 ba a4 3f
       0.62942576 1.2869396

Linear2.weight f4 [8, 10]
000000 8a d0 9e be ca eb 1e be a0 36 4e bc 50 a9 30 3d
       -0.31018478 -0.15519634 -0.012586266 0.04313022
000010 68 05 5e be 33 9a 8a be 84 84 76 be 6c 4c 9a bd
       -0.2168175 -0.2707077 -0.24073988 -0.075341076
000020 d8 a1 3c 3d 14 26 20 be ff 76 6b bf 9e c8 57 3e
       0.046052784 -0.15639526 -0.9197845 0.21072623
000030 2f 6d 84 bf b5 0a b1 3d f3 3d 27 3e 01 98 aa 3d
       -1.034582 0.0864462 0.16332226 0.08329774
000040 43 03 06 be af 36 12 3e d0 08 4a 3f 76 24 1c 3f
       -0.13087182 0.14278673 0.78919697 0.60993135
000050 70 53 29 3f 9e 78 fe 3e 57 2f f1 bc b5 39 3d bf
       0.6614294 0.497014 -0.029441519 -0.7391618
000060 17 f3 34 bf e5 ad bb bd 2c d2 bc bd ab 44 39 3f
       -0.70683426 -0.09164027 -0.092197746 0.72370404
000070 fb ce 0d 3f a8 72 0b bd 89 62 c9 3e aa 36 ae 3e
       0.5539395 -0.03404489 0.3933299 0.3402608
000080 28 c2 2e 3d 1c d8 df ba d4 e7 df 3e 38 53 88 3e
       0.04266563 -0.0017077955 0.43731558 0.2662599
000090 07 1e 26 bd 06 55 11 3f 8b f8 84 3e e2 f5 fc 3e
       -0.04055598 0.5677036 0.25970873 0.49406344
0000a0 bd 31 a2 3e 5b 53 81 3e 51 35 8b be d1 b6 df 3d
       0.31678572 0.25258908 -0.27189115 0.10923541
0000b0 b6 dd 88 3e 9c 9d ed 3d 2f b9 db 3d 48 3c c1 3e
       0.26731652 0.11602327 0.1072868 0.37741303
0000c0 90 94 b6 bb 7e 85 77 3e 4e ad ae 3e 81 d3 31 3f
       -0.0055719092 0.24172017 0.34116596 0.69463354
0000d0 da 20 0d be 09 af 5d be d0 73 32 be a3 09 49 3f
       -0.13782063 -0.21648802 -0.17426991 0.7853033
0000e0 71 97 a3 bf fc 26 a6 3d b4 0c d6 be f9 34 66 bf
       -1.2780591 0.081129044 -0.41806567 -0.8992458
0000f0 ee 15 86 3d 54 a1 8c 3e e6 1a 01 be b2 18 1a bd
       0.065471515 0.27466834 -0.12607917 -0.037621208
000100 cd a2 8f 3e 76 ee 3c 3e 18 de 84 3d 38 14 f5 3e
       0.28053895 0.1845034 0.064876735 0.47866988
000110 3d 52 58 be 3b 49 12 3f 72 dd f0 3d 97 9b 0a 3f
       -0.21125121 0.5714299 0.11760987 0.5414366
000120 b1 58 70 3d 76 9d 4c 3e 61 65 f6 3e 6b ed 8d 3e
       0.058678333 0.19981942 0.4812422 0.27720198
000130 db ed 71 3e b8 c7 38 3e f0 45 49 3d 00 f5 c7 3d
       0.23625891 0.18044937 0.049138963 0.09763527

Linear2.bias f4 [8]
000000 8b aa 37 be d3 96 1a be 1f f3 e3 be 55 2c 19 3f
       -0.1793615 -0.15096597 -0.44521424 0.5983327
000010 ee c5 84 3f 12 e4 24 bf 1e e4 86 3f 6c b9 30 3f
       1.0372903 -0.6441051 1.0538366 0.6903293

Linear3.weight f4 [1, 8]
000000 5e d2 95 be 61 c9 36 bf 85 26 f4 be 3f c5 ea 3e
       -0.2926206 -0.7140103 -0.47685638 0.45853612
000010 85 f8 d4 3e d3 f1 10 bf 1d f1 05 3f 22 50 b2 3e
       0.41595855 -0.56618994 0.52321035 0.3482676
